models/model.pt (torch, 378536 bytes, 8 tensors)

conv1.weight f4 [32, 1, 3, 3]
00000000: f5d9 b4bd c00d a7be 6952 043e f631 dbbd
00000010: 3dc1 89bd 3ac9 91be 23a2 e33d c4f0 a63e
00000020: b955 7f3e 562f e63e 6fbc 4a3c 4e17 15bf
00000030: 7c4b f63d c076 1dbf f8c7 cbbe f25c 1bbf
00000040: 33e9 10bf a0c1 1d3e 0e44 8dbe c0f8 88be
00000050: 3954 723e c862 8b3e 5eae b03b f257 4b3e
00000060: 07c6 a5bd f0b9 a2be ff99 a73e 4d74 2bbe
00000070: 75cc ea3d 810e 9ebe 0e60 10be 163b 8fbd
00000080: 7ac1 11be a789 713e b3c5 c93e 375f 82be
00000090: 4fde 85be df80 cf3b 2626 18bf 4dcc bcbd
000000a0: be3c ae3e bd55 ad3e de90 ea3d 3af0 f0bd
000000b0: bee1 8cbb eb01 493e 1263 52be c854 0ebd
000000c0: ec61 cabd 0e59 10bf 5528 0a3e 45e7 e3bd
000000d0: 25bf 0c3e b11e e93e 2e12 a9be 20a4 a7bc
000000e0: 68d1 df3e f6cd ddbe f626 a9be 7aa7 4a3e
000000f0: df3e 033d c6f4 a1be 5ebf 83be f907 7c3e
00000100: 710a 26bd a849 a9bd 70c2 92bc 05db c33d
00000110: a369 143e 0ea6 1f3e 3bc5 debd 10e2 5a3e
00000120: 8118 b13d f7a2 0f3e 3ce3 bebe d6c2 cc3e
00000130: d481 b43b 5db0 8fbe 17e7 c8bc f9ab 523e
00000140: c2c4 1cbf 1f1d d63d 9c0a c63e c860 f83d
00000150: 54e8 74be 8a3d 293e cef4 6d3e ad75 93be
00000160: a8fe 0abf 12bc 2abe aee8 5ebe d675 d3be
00000170: d2f1 7bbe 21a3 803e 5ecf 623e 5aeb a4be
00000180: 8cb3 cc3e 5daa 813e 4519 9e3d 59d3 313e
00000190: 1fe5 3abe a2e3 ffbe 5047 623e 169c afbe
000001a0: f305 70be 119e 753e fe5c e13e c644 993e
000001b0: 5cc7 5b3e 41f7 2dbe 8409 ecbe fca1 323e
000001c0: 3bb3 a23e bf6b a1be f34e 63be 16e9 9e3e
000001d0: 4e26 73be 67c7 69be 3a9b ad3a 97c5 fb3d
000001e0: bda6 26be 30ea 2dbe b946 cfbe 1d1d 85bd
000001f0: 4cbb b2bd 793e 06bf 4a7f 48bd 0fcb 96be
00000200: 1791 c9be 73fd b9bd a20f 283e 4889 773e
00000210: 33b9 d1bd 522d b03d 4b06 ae3e 2b36 883e
00000220: b686 7ebc 9ff0 a33e 2e29 92bc 6f8c cf3d
00000230: 7faf ebbe c02d bdbe 2a08 b1be 40c1 d0be
00000240: baa1 0e3e 9411 613e b895 c9be 9138 6bbe
00000250: d789 17be 9ab1 773e 68d1 70bd 518f e4bd
00000260: 3c2a 0c3e 9628 96bd 6095 dcbe 29db e1be
00000270: f9e5 d9be b455 bcbe ff07 833e 9060 e6be
00000280: 25f0 8f3e e5ce 8d3e a6b3 df3d 8630 b43e
00000290: 6268 e2bd 26a1 cabc c88e 9f3e e824 b9be
000002a0: 65fb f6bc 2e8a 1bbf c3a2 2fbe 6d24 ebbc
000002b0: 64a2 ae3e d79b 483e 3576 883e 7244 5fbd
000002c0: c35b 8cbd 1c8b 84bd af32 b0be 81b0 7dbe
000002d0: 406f 25be 25b2 b73e b5fc 953e afa9 c5be
000002e0: e2ee 94bc b966 7bbd 32a0 bcbe 3302 a4be
000002f0: a1de 02bf 46f9 343d 803a 803d b8b8 e2be
00000300: 5d1b 7b3e 13d3 6dbe 95d6 a73e b32b 29be
00000310: ba1f d5be 4b26 303e 3d26 273e 0a84 4bbe
00000320: d8e3 83be 70d1 04bf 1da0 57be ba4e 06bf
00000330: 8c53 61be dba7 98be cf04 08bf e51a 3fbe
00000340: 10ed 9f3e 4b7a 77be 5cd5 113e ddba 823e
00000350: 099c febe 6a1c d83e 3322 6bbd 6880 b2be
00000360: a438 b5be fe68 f3bb 5e6a f13c 382f 413e
00000370: f74a c53e 0723 733e d57a 983d 9131 79be
00000380: 5388 c8be e317 36be 7870 0f3d 96b5 883e
00000390: 74e2 94be 3568 813e 351b e13d cad7 0bbf
000003a0: 558c aa3b ce19 b5bc 8e95 d7be 393e 083e
000003b0: daf4 46bd 2a04 d03e d16c 533e 5ea9 32be
000003c0: 6e68 bfbe db98 8ebd 4742 58bd 1dc9 643d
000003d0: 7215 663e 9638 9abe 8640 dfbe 3de7 293d
000003e0: 0639 a63e 6534 91be abdf e1bb 7ac2 8c3e
000003f0: 5ae0 22be 9a99 a23e 58d3 c43e 19de 34be
-0.088306345 -0.32627678 0.12922062 -0.10702889 -0.067263104 -0.28473836 0.111149095 0.32605565
0.24935044 0.4495799 0.012374028 -0.58238685 0.12026116 -0.61509323 -0.39801002 -0.606887
-0.56605834 0.15405893 -0.27590984 -0.2675228 0.23664941 0.27223802 0.00539188 0.19857767
-0.08094411 -0.31782484 0.32734677 -0.16743584 0.11464778 -0.3087044 -0.14099142 -0.069936916
-0.14233962 0.23587666 0.39408645 -0.25463268 -0.2614617 0.0063325013 -0.5943321 -0.09218655
0.34030718 0.33854476 0.114534125 -0.117645696 -0.0042993715 0.19629638 -0.20545605 -0.034748822
-0.09881958 -0.56385887 0.13491948 -0.111280955 0.13744791 0.45531228 -0.33021683 -0.020464003
0.43714452 -0.43321198 -0.33037537 0.1979045 0.03204238 -0.3163206 -0.2573194 0.24612416
-0.0405373 -0.08266002 -0.01791498 0.09563259 0.14493422 0.15590689 -0.108774625 0.21375299
0.08647252 0.1402701 -0.3728274 0.39992398 0.005508641 -0.28064242 -0.024524255 0.20573415
-0.6123773 0.10454773 0.3867997 0.121278346 -0.23916751 0.16527382 0.23237917 -0.28800717
-0.54294825 -0.16673306 -0.21768448 -0.4130084 -0.24603966 0.25124457 0.22149417 -0.3221081
0.39980733 0.2532529 0.077196635 0.17365779 -0.18251465 -0.49978358 0.22097516 -0.34298772
-0.2343977 0.23986079 0.4401626 0.29935282 0.21462768 -0.16988851 -0.4610101 0.17444605
0.31777367 -0.31527516 -0.22198085 0.31037205 -0.23745081 -0.22829972 0.0013245114 0.12293547
-0.16274543 -0.16983867 -0.40483645 -0.064996935 -0.0872713 -0.52439076 -0.048949517 -0.29451796
-0.39368507 -0.09081545 0.16412213 0.24173462 -0.10240402 0.08602394 0.33989176 0.26603827
-0.015535047 0.32019517 -0.017841902 0.101342075 -0.4603233 -0.36948967 -0.3457654 -0.40772438
0.13928881 0.21979362 -0.3937204 -0.22970797 -0.14798675 0.24188843 -0.058793455 -0.11160148
0.13687986 -0.0733196 -0.43082714 -0.44112518 -0.42558268 -0.36784136 0.25592038 -0.44995546
0.28112903 0.2769691 0.10922937 0.3519327 -0.11055066 -0.024735045 0.3116362 -0.3616097
-0.030149171 -0.6075772 -0.17151932 -0.028703893 0.3410827 0.19590698 0.26652685 -0.054508634
-0.0685344 -0.064718455 -0.3441367 -0.24774362 -0.1615572 0.358781 0.29294363 -0.3860602
-0.018180314 -0.06137726 -0.3684097 -0.32032928 -0.51120955 0.04418304 0.06261158 -0.44281554
0.24522157 -0.2322505 0.327809 -0.16520576 -0.41625768 0.17202108 0.1632318 -0.19874588
-0.25759768 -0.51882076 -0.21057172 -0.5246388 -0.22004527 -0.29815564 -0.5313234 -0.18662603
0.31235552 -0.24167745 0.14241546 0.2553319 -0.4972842 0.42209178 -0.05740566 -0.3486359
-0.35394776 -0.0074282875 0.029469665 0.18865669 0.38533756 0.2374383 0.07445303 -0.24335314
-0.39166507 -0.1778255 0.035019368 0.2670104 -0.2907902 0.25274816 0.109915175 -0.5462614
0.005204717 -0.022107031 -0.4210629 0.13304986 -0.048573352 0.40628177 0.20646979 -0.17447421
-0.3738436 -0.069627486 -0.052797582 0.05585586 0.22469118 -0.30121297 -0.43603915 0.04148029
0.3246538 -0.28360286 -0.0068931184 0.27492124 -0.15905896 0.31757814 0.38442492 -0.17662849

conv1.bias f4 [32]
00000000: a843 cebd d033 4d3e dfbd f4be 601d fdbd
00000010: 0339 03be 317c a1bd 3bd5 553c ad5f cbbe
00000020: 32d8 1abd 5193 61be e3d8 85bd e035 b3bb
00000030: 18c2 27be 424d 193e 9ebd c2bc 0d61 95bd
00000040: fe1c 10be 53d5 8bbd 8a79 28be 3eaf a5bd
00000050: 250b 48be 310d 44be 2a1d 8cbd c795 4dbd
00000060: 0f51 76be 0473 12be 4b8f c2bd 38ad 74bd
00000070: a934 87bb 39e8 61be 7c8e 23bd b04b 0bbe
-0.10071498 0.20039296 -0.4780111 -0.123591185 -0.12814717 -0.07885016 0.013051326 -0.39721432
-0.037803836 -0.22028853 -0.065355085 -0.005469069 -0.16382635 0.14970878 -0.023772057 -0.072939016
-0.1407356 -0.06827798 -0.16452613 -0.080900654 -0.19535501 -0.19145657 -0.068415 -0.050191667
-0.24054359 -0.14301687 -0.09499987 -0.059735507 -0.0041261506 -0.22061242 -0.039930806 -0.13603091

conv2.weight f4 [64, 32, 3, 3]
00000000: 7941 343e 1634 e7bd f0cd c2bd 3bb6 ab3d
00000010: 171d 88bd 7f12 0abe 3e7b 1d3e afbb 5a3d
00000020: c060 a9bd 258a d33d 8489 393d a525 06bd
00000030: 396f 6a3d 017b c3bd a7e1 983c b94d 2ebe
00000040: dfa2 30bd c766 a73d a839 36be 38e0 d3bd
00000050: 798e 46bc 3d97 70bd b240 3fbe 0ab5 83bd
00000060: a28d 9ebb eaf0 a3bd 9280 d1bd b0cf 143e
00000070: 0917 473d 87e5 513d e20c 1e3d 557c bc3d
00000080: ae6c 80be bf99 6e3e f0ca 803e 7ebf b23b
00000090: a376 4c3e 3976 acbd fcba afbd 5dd1 8c3e
000000a0: 93ff fd3b aedc 0abe 5811 be3d 757f 52bd
000000b0: 1555 2abe 8d53 be3d 9bbf e3bc fa58 b7ba
000000c0: 2dd7 a93d 640c 7bbe 97db 12bb c062 e73d
000000d0: 6abd bbbd 60f4 c83d d458 1b3e 1af9 043e
000000e0: 0f67 cb3d e4f0 fbbd 972a 1a3d a6cb ab3d
000000f0: 8e41 033d ab9f aabd 90ef aa3d 3e6b 51be
00000100: a65e 59be 90aa 1fbe a356 8ebd a9ee 14be
00000110: 9c95 98bd c462 ed3d 7499 90bd 43c6 0ebe
00000120: fd88 1ebe f74d d1bd e03a 173e f994 c53b
00000130: d18d 82bb 55b2 70bd bdcf 343e b34f 643e
00000140: 93ff 513c 0cd6 493e 64d8 3b3d ea81 573b
00000150: 663b 46bd 9c51 54be 8727 8abd a119 5fbd
00000160: 88ea 8cbe 19bc 30be 3591 843e f6b8 31bc
00000170: 3458 00be fdd3 233e 0fb6 a33d d21b 87be
00000180: bfe4 463e afc4 3d3e 4b6f c0bd e05c fa3d
00000190: 4d6e 1dbe 1998 56be 34c7 9d3b d13e 55bd
000001a0: 01a0 9bbe f532 253e 883d 2d3e 7b51 6bbc
000001b0: 14fb 2cbe 9029 9dbd 1c24 703d d4db 2b3d
000001c0: 4057 313d 6ee0 5cbc f22c 2e3e 8ada 2f3e
000001d0: df07 f7bd b907 143e 9475 e13d 9e54 e0bc
000001e0: f682 cabd 5b1d b03d dcc5 0dbd 3aa3 68be
000001f0: 0425 f73b 2dba 233d 886e fb3d 9867 16be
00000200: 6adf d2bd 8123 453e 6353 34be 350d cabd
00000210: 2f68 533e 0336 60bd 4aa4 c1bc cce8 263e
00000220: 35d0 403c be66 283d c768 3ebd c006 e7bd
00000230: 6801 a3bd a55f 87be 6f06 cfbd c716 4cbd
00000240: e82f 80bd 8825 4dbc 77be 993d 4a51 163e
00000250: df0a 983c 8904 3cbd d570 c93d 4356 b23c
00000260: 4931 033e 97bb 3e3e e69c c6bc 061d b33c
00000270: f101 f73d d04b 38bd 95aa 60bd 36a4 31bd
00000280: 19d1 0ebd 776a 323e 7fdc dcbd 34ce afbd
00000290: b7d5 f4bc 615b 9d3a 29e6 5cbe ec0e 1dbe
000002a0: 7b04 60bd da25 4ebe 28cf 8ebe 2d59 66be
000002b0: a0aa 11be d149 0fbe 0923 343d 309c 56be
000002c0: d303 59be 5dbc 9abd dca7 86be f770 82be
000002d0: d4be 1a3e 8aac 2a3d c4fc bd3c 312e 98bd
000002e0: 4b09 d1bc 5320 163d aea2 3bbe 3bcf 49be
000002f0: f599 513d 16e3 03be 44a0 97bd 76ae e83d
00000300: ac60 0b3e 4b0b 4d3d a1d5 043d c990 f23d
00000310: 0d25 01be 8175 6ebd 28c9 1a3e 311a a13d
00000320: dd67 be3d e32c c3bd 7e6a 46bd 8b7b 573d
00000330: bd59 8cbe a572 c9bd 3bbf ee3d 7caa b4bd
00000340: aaf8 47bd 4414 4f3d f9d1 e93c f96c 133e
00000350: 03dd 00be 0954 6f3e 43dc 823e fadc ca3d
00000360: 106b 1ebc 1692 15be fb96 09be cb99 ac3d
00000370: 8e80 68bc ed8a 6cbe d90e 6ebd 5ce4 4fbe
00000380: 427b 90be 6a1c 8abe a72f 403e 6efc 513d
00000390: 9043 52be 8abb 04bb f82c 393d fb65 aa3d
000003a0: a8e2 813b b801 e53d cfc9 1cbe a0a0 1c3e
000003b0: 291e c0bd 637a a03c 5dac efbd 6dbc 983b
000003c0: d3e0 dcbc dd4b 8fbe be54 dbbe 1469 00be
000003d0: 4f55 5f3d 6562 a33d 6aa2 da3d 6330 4dbd
000003e0: 6173 54bd 8aab 0b3e 277b 3b3d 4c93 6e3d
000003f0: 1898 eb3d 157f da3d 0206 07bd b719 e7bd
0.17603101 -0.112892315 -0.09511936 0.08384367 -0.066461734 -0.13483618 0.15379044 0.053401645
-0.08270407 0.10329083 0.04529716 -0.032750744 0.057234976 -0.095449455 0.018662287 -0.17021836
-0.043124076 0.081739 -0.17795432 -0.10345501 -0.012118929 -0.058737982 -0.18677023 -0.06431015
-0.0048386613 -0.08004935 -0.10229601 0.14532351 0.048605952 0.051244285 0.038586505 0.09203402
-0.25082916 0.23300837 0.2515483 0.0054549566 0.19967131 -0.08420987 -0.08580586 0.27503482
0.007751414 -0.13560745 0.09280652 -0.051391084 -0.16634019 0.0929328 -0.027801326 -0.0013988309
0.08292995 -0.24516445 -0.0022408718 0.11298132 -0.09166987 0.09812236 0.15170604 0.1298565
0.09931766 -0.123018056 0.037638273 0.08388452 0.03204494 -0.083312355 0.08346474 -0.20451066
-0.21227512 -0.15592408 -0.069501184 -0.14544167 -0.07450411 0.11591104 -0.07060519 -0.13942818
-0.15481944 -0.10219949 0.14768553 0.006029722 -0.003984191 -0.05876382 0.17657371 0.22296028
0.012817281 0.19710559 0.045860663 0.0032883831 -0.04839649 -0.20734257 -0.067458205 -0.0544678
-0.27522683 -0.17259254 0.25892034 -0.010847321 -0.12533647 0.15998836 0.07993709 -0.26388413
0.19423197 0.1853206 -0.093962274 0.12224746 -0.15374108 -0.20956458 0.0048150066 -0.05206186
-0.3039551 0.1613272 0.16918004 -0.014362688 -0.16892654 -0.07673943 0.058628187 0.04195769
0.0432961 -0.013481243 0.17009333 0.1717321 -0.12062048 0.14456071 0.110087544 -0.027384099
-0.0988826 0.08599349 -0.03461252 -0.22718516 0.0075422544 0.039972473 0.122769415 -0.14687955
-0.10296519 0.19251825 -0.17609935 -0.098658 0.20645212 -0.05473901 -0.02363791 0.16299742
0.01176839 0.041113608 -0.046486642 -0.11280584 -0.079592526 -0.26440158 -0.10108649 -0.04982641
-0.062591374 -0.012521155 0.075070314 0.14679447 0.018559871 -0.045902763 0.09835974 0.021769648
0.1281177 0.18626247 -0.024244737 0.021864425 0.12060917 -0.044994175 -0.05485018 -0.043369494
-0.03486738 0.17423426 -0.10784244 -0.08584252 -0.029887063 0.0012005382 -0.21572174 -0.15337723
-0.054691773 -0.20131627 -0.27892423 -0.22494955 -0.14225245 -0.13993002 0.043978725 -0.20958018
-0.21192865 -0.07555459 -0.26299942 -0.2547681 0.15111858 0.041668452 0.023191817 -0.07430685
-0.025517127 0.03665192 -0.18323776 -0.19707958 0.051172215 -0.12879595 -0.07403615 0.11361401
0.13611096 0.050059598 0.032430295 0.11844022 -0.1261179 -0.05821753 0.15115798 0.07866324
0.09297154 -0.09530046 -0.048441403 0.052608054 -0.27412215 -0.0983632 0.11657568 -0.0882158
-0.04882113 0.050556436 0.028542506 0.14397039 -0.1258431 0.233719 0.2555867 0.09905429
-0.00966908 -0.14606509 -0.134365 0.08427771 -0.014190806 -0.23099871 -0.05811963 -0.20301956
-0.28219038 -0.26974803 0.18768178 0.051266126 -0.20533586 -0.0020253384 0.0452089 0.083202325
0.003963787 0.111819685 -0.15311359 0.15295649 -0.093807526 0.019589609 -0.117027976 0.004661134
-0.026962673 -0.27987567 -0.4283809 -0.12540084 0.054524716 0.07977752 0.10675509 -0.050094973
-0.051867846 0.13639656 0.045771744 0.058245942 0.11503619 0.1066877 -0.032964714 -0.112842016

conv2.bias f4 [64]
00000000: 7e50 85bd 4b0c 73bc 171c 733b 863c 3bbd
00000010: 156d 33bd 64ca ea3b a8be 963c a2ac 34bd
00000020: e470 de3a 8745 a53d ac39 81bd 966b 38bd
00000030: 71c2 1abd d81b ebbc c8dc 183c 4c24 50bd
00000040: a121 f6bc 4b55 28bc bbd7 ecbc 49c4 bcbd
00000050: 93a2 183d d213 ecbb 6701 20bd 94a9 ebbb
00000060: 14e6 7f3b 1764 d3bd 1195 10be 032d 3e3d
00000070: 81ef 7f3c d57d 1c3c 8cb0 a3bd a45e bcbc
00000080: b535 3cbd eaf4 9abc 72df 71bc 0a60 5abd
00000090: 0ccb 15bd f302 2ebc f0d3 cdbd 7b74 8bbd
000000a0: 38e5 503a a4d4 88bd 78d2 2bbd 5bc9 51bd
000000b0: 2a46 14be 8f2c 9abd 2183 acbd 6a29 14bc
000000c0: 015d 1fbd a4ea 92bd f012 f9bd c274 ce3c
000000d0: aeb3 2f3c e8b0 02bc b013 593b 0355 96bd
000000e0: b602 d5bd 4e79 23bc c617 133d 819c aabb
000000f0: 5a4d d7bd 3585 a63b 1df0 9a3c 1e52 7bbc
-0.06509493 -0.014834474 0.00370956 -0.045712017 -0.0438052 0.00716524 0.018401459 -0.044109948
0.00169709 0.08069902 -0.06309828 -0.045024477 -0.03778309 -0.0286998 0.009329982 -0.050815865
-0.030045332 -0.010274242 -0.028911462 -0.09217126 0.037264418 -0.007204511 -0.039063837 -0.007191846
0.003904705 -0.10321825 -0.14119364 0.046429645 0.015621067 0.009551485 -0.07992658 -0.022994347
-0.045949657 -0.018915612 -0.014762746 -0.053314246 -0.036570594 -0.01062082 -0.100501895 -0.06809326
0.00079687266 -0.06681183 -0.041948766 -0.05121742 -0.1447989 -0.0752803 -0.08423448 -0.009043077
-0.038907055 -0.071736604 -0.12161815 0.025202159 0.010723991 -0.007976748 0.0033123307 -0.073404334
-0.10400908 -0.009977652 0.035911344 -0.005206645 -0.105128005 0.0050817975 0.018913323 -0.0153394025

conv3.weight f4 [128, 64, 3, 3]
00000000: 313c 01be 7779 76bd 1ac9 3dbc f989 13be
00000010: d281 bd3c bbf2 94bd 830b 86be e5c5 c3bd
00000020: 557e 3cbe 126d eabb eacb ff3a 94f2 1b3c
00000030: 4794 6abc 8ad1 33bc 00d9 89bb 2d9f 7d3c
00000040: 3469 803c 2d2d 113c a54e c9bd aba6 88bd
00000050: bae5 9abd e04b 1fbc 7612 383d a6fe bdbd
00000060: b726 3cbe ae63 81bd 3910 c1bc 17be e5bd
00000070: bab1 1dbe 4112 263d 5b6b 07be a5a6 9f3c
00000080: 3247 38bc ce1d cabd d07f 98bc ee9e 7abe
00000090: 13be 99bd fdd6 843d fa79 18bd 2674 dfbd
000000a0: f78a dcbd ca40 87bc 41ea cbbd 4ddd 01be
000000b0: e7f3 8a3a 7f00 783d 3b4a c73d ed85 98bc
000000c0: 7f6e afbd 30be 323d 4522 30bd 8c6d 55be
000000d0: ab9e 2cbe 0e4f 963d 0350 03be de3f debd
000000e0: 5c07 82bd 9420 923a c09f 1c3e 5d97 9e3d
000000f0: 3914 35bd 8246 e5bd 9d05 fa3c aeaf 11be
00000100: 8d17 00be eaaf c9bd 8407 06be 4df6 e53b
00000110: 568f 6bbc 49e5 203a e0df 03bc 3e20 7bbd
00000120: d878 bf3c c158 d8bd 2185 f43c e987 8a3d
00000130: 8fd6 c2bd c807 3d3d e420 abbd 508f babd
00000140: 2026 ab3d 04e2 203d 3eb4 f83c ed7a 13bc
00000150: 6c5c dabd eb84 5fbd bd94 db3d 43fc 86bd
00000160: 3daf f6bd 7be1 cc3b e553 e4bb 5d28 e1bc
00000170: 6fae 02be 5bcd 823d 46ba 9b3d e747 b23c
00000180: 3278 dbbc beda 203e dc3e 553d 03b1 a4bd
00000190: 0116 a1be 9aaf b5be 630c d23d f48b 5a3d
000001a0: 046e 5bbd 23ff 343c f1bc 383d 489e 833d
000001b0: a7bb 64bd ff57 1a3d b41b f23d 1b19 f83c
000001c0: aba9 003b 8a20 393c 6cfe 65be a9e9 55be
000001d0: d738 e33d 162a 5538 959c 12bc 8346 4dbd
000001e0: ca84 f03c 8714 07bc bcff 3bbd b0a5 943d
000001f0: 1024 fa3d 1a3d ecbd 6eeb 8b3d 82f7 efbb
00000200: 891a 19bc 4598 233e d981 723d 00de 93bd
00000210: 4ba1 31bd 7b3d 99bd b536 75bd d86a abbd
00000220: 7856 15bd c218 fbbd ba9c 8cbd 7fe8 953d
00000230: 72c5 01bd 0ea3 05be 9fe7 bf3d fd76 44bd
00000240: 7570 8dbe b3e7 3abe 9bec 5f3d 86aa 12be
00000250: 1644 1a3c 5559 73bd a1e3 acbd 14bb 773d
00000260: ab55 6c3d 46f9 9c3d b82c debd dbf3 41bb
00000270: 92cf cbbd 83e8 993c e42f 42be 2ef3 26bd
00000280: be87 0cbe 25ae 84be 783b 07be b84f 67bd
00000290: 38e3 a1bc fd18 94bd 2cd3 1bbe 3edd 3cbd
000002a0: 4932 1c3c 9c98 1d3d c5be 93bd 666a 623a
000002b0: c374 02bd dee7 77bc 247d fc3c 2a35 71bd
000002c0: a052 a73d ae6f 2ebd ff66 8bbc b5bd 103e
000002d0: 4e8e d03c a7b7 543c c8d7 18bd d732 aa3c
000002e0: 56a5 0dbd 28d6 1cbb 6f35 753c f5f1 8a3e
000002f0: 9732 82be 2727 293c 7ee9 07bd 99b9 423c
00000300: ef66 ca3c fc20 0ebb 0448 c1bc a605 8fbc
00000310: badb ecbb 3346 023d 19f5 3dbd 8205 00bd
00000320: 6741 bcbd 2ef0 143d 9b47 f13d d41b 15bc
00000330: bb96 c1bc 97a3 973d d418 7d3d 07d3 233d
00000340: 1e61 61bd fec6 a8bd fa1f 483d 744e 1abd
00000350: d596 07bd 2005 2d3d 98b3 2e3e 3f33 a4be
00000360: a965 27bb e6a3 b6bb e014 11bd fd19 aabc
00000370: 9665 183d d25a bebc 39f1 003c b576 3f3c
00000380: 9bd8 e3bb 2e15 06bd cc3f 303e 8219 013e
00000390: 2d4a 8abe 472d 19bd 7dea 2dbc c048 103e
000003a0: 1f0e 6d3d dd23 703c e64d 553d 6c48 16bc
000003b0: 011f 1fbd 347b 2ebe 2949 84be a242 7abe
000003c0: 8707 10bd ebc5 edbd 3cd4 e7bc fb78 9dbd
000003d0: 50c2 42be 09be 50bd f453 a6bd ce60 e2bd
000003e0: 7406 c03d a1ef 60be 6c33 a5bd 2ceb 3a3d
000003f0: 5042 143d 608d c7bb af48 c0bd 5db9 0cbe
-0.12620617 -0.06017443 -0.011583591 -0.14408101 0.023133192 -0.0727286 -0.26180658 -0.0955923
-0.18407567 -0.0071541155 0.0019515727 0.009518284 -0.014317579 -0.010975251 -0.0042067766 0.015479845
0.015675165 0.008860868 -0.098294534 -0.066724144 -0.07563348 -0.00972268 0.04493948 -0.09277086
-0.18374144 -0.063178405 -0.023567306 -0.112178974 -0.15399829 0.040544752 -0.13224547 0.019488642
-0.011247443 -0.09868966 -0.018615633 -0.2447469 -0.07506957 0.06486318 -0.0372257 -0.109108254
-0.10768693 -0.016510386 -0.0995679 -0.12682076 0.0010601253 0.060547348 0.09730955 -0.018618548
-0.08565997 0.04363841 -0.043001432 -0.2084257 -0.16857402 0.07339297 -0.12823491 -0.108520254
-0.0634906 0.0011148625 0.15295315 0.07743714 -0.04420874 -0.11195089 0.030520255 -0.14227173
-0.12508984 -0.09848006 -0.13088804 0.0070178867 -0.014377436 0.0006137682 -0.008048981 -0.061310045
0.023373052 -0.105638035 0.029848637 0.06764204 -0.0951358 0.04615 -0.08355883 -0.09109366
0.08356881 0.039278045 0.030359384 -0.009001476 -0.10662159 -0.05457012 0.10721729 -0.06591084
-0.12045143 0.0062524653 -0.006968009 -0.027485067 -0.12761854 0.06386825 0.07603888 0.021762801
-0.026790712 0.15708444 0.0520619 -0.08041575 -0.314621 -0.35485536 0.10256269 0.053356126
-0.053571716 0.011047157 0.045102064 0.06426674 -0.05584302 0.037681576 0.1182169 0.030285409
0.001963238 0.011299262 -0.22460335 -0.20889916 0.11094826 5.0822353e-05 -0.008948465 -0.050116073
0.029360194 -0.00824464 -0.045898184 0.07258165 0.122139096 -0.11535092 0.06832014 -0.0073232064
-0.009344705 0.15976055 0.059205864 -0.072200775 -0.04336671 -0.074824296 -0.059866626 -0.08369988
-0.036459416 -0.122605816 -0.06865831 0.07319736 -0.03168244 -0.13050482 0.0937035 -0.04796504
-0.2762486 -0.18252449 0.054669004 -0.14322862 0.009415647 -0.059411366 -0.08441854 0.060481146
0.057698887 0.07664733 -0.10848373 -0.0029594812 -0.099517 0.018787628 -0.18963581 -0.040759258
-0.13723657 -0.25914112 -0.1320628 -0.05647251 -0.019761667 -0.07231329 -0.15217274 -0.04610943
0.009533473 0.038475618 -0.07214121 0.00086370704 -0.031849634 -0.015130965 0.03082139 -0.05888859
0.08170056 -0.042586975 -0.017016886 0.14134867 0.025458481 0.012983239 -0.03731516 0.020776195
-0.034581505 -0.0023931358 0.014966353 0.27137724 -0.25429222 0.010324276 -0.03318166 0.01188507
0.024707286 -0.002168714 -0.02359391 -0.017458748 -0.007228342 0.03180523 -0.04637632 -0.031255253
-0.09192162 0.036361866 0.11781236 -0.009100873 -0.023631444 0.07404249 0.061791256 0.039996173
-0.05502426 -0.0824108 0.04885862 -0.037672475 -0.03310283 0.042241216 0.17060697 -0.32070348
-0.0025542772 -0.0055737374 -0.0354203 -0.020764345 0.037206255 -0.023236666 0.007870012 0.011686017
-0.0069533116 -0.032735042 0.17211837 0.12607387 -0.27009717 -0.037396695 -0.010614988 0.14090252
0.057874795 0.014656988 0.052076243 -0.00917254 -0.038847927 -0.17039186 -0.25837067 -0.24439481
-0.03516343 -0.116100155 -0.028299443 -0.07689091 -0.19019437 -0.05096248 -0.081214815 -0.1105362
0.09376231 -0.21966411 -0.080664486 0.045634434 0.036196053 -0.0060898513 -0.09388863 -0.13742585

conv3.bias f4 [128]
00000000: 5ddf 2e3c 1e47 be3b 85c1 a2bc 5c2f c3bb
00000010: 07f0 c33c 5700 90bd 722d 23bc 79fa 44bd
00000020: 4848 99bc 16a2 5abd 10a0 a6bb d903 6fbd
00000030: 8371 cabd 9eeb adbd 402d 9cbb ec4a 6bbd
00000040: fe25 ff3c fb4d 93bd 6c0e b7bc 20c1 41bd
00000050: 0302 60bd 39fb 50bd 30e1 d1bb 84f9 efbc
00000060: b117 9abd 8ea1 ae3c ce48 6dbc 1830 b2bd
00000070: 3cba 23be 3586 263a 886e 2b3c d418 5d3c
00000080: f39c 6fbb e104 91bd a74a 9abd 0932 eabc
00000090: 733d f8bd 1832 99bd 4736 84bd 4ee0 a6bd
000000a0: 67d1 8fbb a1b5 90bb 3952 fcbc c205 60bd
000000b0: f830 dfbc 79aa 9ebc b4b9 8dbc f52d adbd
000000c0: 36dc 04bd 4a56 133c b093 a3bd c8ee 0a3c
000000d0: c4dd d6bd 0c03 71bd 9594 08bd 52d0 71bc
000000e0: 2ecc c33c 800a 14bd 9541 0cbd aca0 afbd
000000f0: ee0f c7bc 7db8 57bc 1d76 e33b cba1 17bd
00000100: 5b70 52bd 126a f73b 8a55 99bd b710 9dbd
00000110: 58f8 9fbd e28d eabc b2c8 acbd 9ec2 e7bc
00000120: 8bab 5ebd c80a 32bd 2f6e 88bd 0d30 9bbc
00000130: 6270 6d3c ae12 93bd c79f 50bd 988e 8cbd
00000140: 0ff6 bebc 62e1 8fbd a2aa 243c 07aa 62bb
00000150: 86f5 81bd 36a0 b0bd 5254 183d 3170 cfbd
00000160: 3381 02bd cfb7 9bbd 3eb7 14bd ccb0 cdbd
00000170: e2ed c6bd 08dd 99bd 7f94 d9bd 5cd9 98bd
00000180: 4ed9 75bb bb8b 98bd 3b43 05bd 5417 72bd
00000190: 46e4 bebd fbf5 29bd 4a79 003d 3871 fbbb
000001a0: d450 79bd 1a99 f93c cc6e 22bd f9ad c9bd
000001b0: 0c0d 36bd dd5f 913a c748 44bc 4a92 61bd
000001c0: f1a2 c33b 9551 6ebd 5f51 93ba d4c1 00be
000001d0: 32ea ae39 6897 debd 862b 1cbd 3e7e 80bd
000001e0: a8a7 413c 8009 eabd 33a6 11bd 148f 4ebc
000001f0: 47d4 9bbb fbc4 89bd 6ea6 79bd b94b a8bd
0.010673371 0.0058068177 -0.019867668 -0.0059565734 0.023918165 -0.07031315 -0.0099595655 -0.04809043
-0.018711224 -0.053377233 -0.005084999 -0.05835328 -0.09884932 -0.08492206 -0.0047661364 -0.057444498
0.031146046 -0.07192608 -0.022345744 -0.04730332 -0.05468942 -0.051020835 -0.0064050183 -0.029293783
-0.0752405 0.02131727 -0.01448269 -0.087005794 -0.15989012 0.0006352396 0.010463364 0.013494689
-0.0036562055 -0.07081009 -0.0753377 -0.028588312 -0.121210955 -0.07480258 -0.06455665 -0.081482515
-0.0043889764 -0.004416183 -0.030800926 -0.05469299 -0.02724503 -0.019368397 -0.017300464 -0.08456031
-0.032436572 0.008992741 -0.079871535 0.008479781 -0.10491517 -0.058840796 -0.033344824 -0.01475914
0.023901071 -0.036142826 -0.03424223 -0.085755676 -0.024299588 -0.013166544 0.0069415704 -0.037019532
-0.05137668 0.0075504864 -0.074870184 -0.07669204 -0.0781104 -0.028632108 -0.08436717 -0.028291043
-0.054362815 -0.043467313 -0.06661641 -0.01894381 0.014492126 -0.07181297 -0.050933626 -0.06863135
-0.02331069 -0.0702541 0.010050448 -0.0034586207 -0.06345658 -0.08624308 0.03718979 -0.10128821
-0.031861495 -0.07603418 -0.036307566 -0.10043487 -0.09713341 -0.075128615 -0.106240265 -0.07463333
-0.0037513557 -0.074485265 -0.03253482 -0.05910428 -0.093208835 -0.04149435 0.03136567 -0.007673409
-0.0608681 0.030468512 -0.039656445 -0.09847636 -0.044446036 0.0011091192 -0.011980242 -0.055071153
0.005970352 -0.05818327 -0.001123946 -0.1257394 0.00033362355 -0.10868722 -0.038127445 -0.06274079
0.0118197575 -0.11427593 -0.03555889 -0.012607355 -0.00475553 -0.06727024 -0.060949735 -0.08217568

fc1.weight f4 [10, 128]
00000000: bae9 9ebe e883 c4bd 14ef cdbd 5918 c33d
00000010: 1c25 4dbe fa96 3fbe 2e99 58bd f2c3 da3d
00000020: 15a8 84be 65e7 523d 4928 683d 8479 813d
00000030: 7b39 2dbe 1883 623e 76db 873d 7e95 5bbd
00000040: 25e9 b93d 8bf1 103e 6773 8dbd bdfc 8e3d
00000050: 84c8 8dbd 51aa 4abd 8cf5 6abc 45a7 27be
00000060: 3b6b fc3c d454 823d 5294 65bd 67ef 133e
00000070: 2384 90be af78 96be a5f8 04be dba4 823b
00000080: c0de 3c3c 8d28 f2bd 6e3a 7fbd bbb0 12be
00000090: 9245 23be 4e58 b33c d855 023e 3b56 54bc
000000a0: 5db2 ff3c 4e8a 94be 0a3b c0bc d03e e03a
000000b0: 23d7 19bd 60e3 653c 0649 8cbe 6da0 41be
000000c0: 43c3 733d 70c2 07be 5357 72bb 11f4 ba3d
000000d0: 4713 77bd dc64 2bbd 0a6b 00be f0ce 343d
000000e0: 186f 4ebe 02cf 0abe d30b e63c d163 a2bd
000000f0: 9b14 ce3c 0f66 c8bd 5fb6 303d f1c4 4b3e
00000100: d4d4 25be 2792 443d 6571 68be 4369 653d
00000110: d7d2 b5bc 8118 29be 88c7 4abe 4771 e53d
00000120: 6904 f1bd 6aec 7a3d 8fb1 2bbe bce7 e5bd
00000130: 140f 44bd cf17 59bd 5d6b 883d a783 af3c
00000140: 1708 56be dca1 303d d97c de3d 851b b8bc
00000150: 0f11 cd3d fe6d 94be 60a5 e23d 57dc 5cbd
00000160: 3801 c43d 93e2 56be 39ab 57bc 1330 c6bd
00000170: 763c 053e 8427 573d 8b2d 823d eec5 91bc
00000180: 1e98 e53d 5b91 bd3d 0fac 6bbe dc5f 5ebe
00000190: c097 d53d b1e5 7bbd fe8a 69be 463b 473d
000001a0: aa3e 133e 448d 963d a8a5 57be 7abd edbd
000001b0: eb7f 48be 2e97 973d 7080 32bd 9dfc 183d
000001c0: d9f3 4bbd 9772 60bd c56c b0bc 44d3 ac3a
000001d0: 05be 9b3d 127d 62be bc49 713d 131c a2bd
000001e0: 097a d1bd 3380 0dbe 6539 fb3d ab20 913b
000001f0: 9c48 10be de17 e23d 719d cc3d 81ab 28be
00000200: 7a05 1d3e a302 f53d f2f8 34be 246e 223e
00000210: 1d76 633d 8764 60bc f6b3 023e fd08 16be
00000220: dc22 cdbd 3e19 75bd 8a66 25be 8409 b1bc
00000230: f9f3 93bd 386b b4be 342c 29bd e096 be3d
00000240: 954a dcbe 84c7 61be ac06 aebe 6ad0 9dbd
00000250: 90ef 823d a28b f9bd 7588 3e3d d888 09be
00000260: 534c cf3c ec33 4c3d 16c4 ffbd a708 1dbe
00000270: 074a e8bc 434a 46be 2c33 1f3c 4926 2f3c
00000280: ff06 dfba 2160 0fbe 152a 5b3d d57b 0dbe
00000290: ffeb 7cbd ddff 3dbd c8d6 a7be 66c6 ec3c
000002a0: 7658 50bd f614 933b dd7e 11be 6c0c c0bc
000002b0: 71f3 fe3c a907 07bd 8616 e2bc 82c7 ec3d
000002c0: 1220 603d 7f85 e8bd 0cbc f9bd 9b2d b23d
000002d0: 085e 2dbe 641c 543d 1a0e a53d a632 cb3d
000002e0: 6ee3 393e 9c8c 91be f414 05bd 5935 bc3d
000002f0: a033 493d 7cb3 51bd e4b2 c03c 12a7 b0be
00000300: a8d2 9abd 958a 90be 89b2 0e3e d938 bc3d
00000310: ef27 5abe 8d15 99bd a45b 59bd 2865 95bb
00000320: 8781 23be cf78 66be 4b0b a5bd 05d3 9f3d
00000330: 36aa bcbd 076e 22bd c37e 30be 2624 e5bc
00000340: 9c7a 75bc a7b6 c8bd 7ec5 babe 32d9 92bd
00000350: b318 30be 1a68 7d3d 21cd 023e 1b25 75be
00000360: 7653 d3be 7ab0 58be 21ab d93d 4e59 85bd
00000370: 524c 55be 789d 3f3e 7f7c 273e 80d3 dabe
00000380: d0bc d53d e836 2abc af7b cd3d 8877 81be
00000390: 5e20 97be b90a 23be a89b a03d af50 58bd
000003a0: ab70 143e 0899 243e 9c2c 9d3d ded5 c2bc
000003b0: 43fa 1cbd d029 0d3d e081 69ba 38db ff3d
000003c0: 2575 55bd bf4d f7bd 9bf8 81bd caab 633b
000003d0: 1eb1 8dbe a1ec 823d 454f d83d b034 9cbe
000003e0: cdf6 07bd 5836 6ebe 542d b9bc 6132 c1bd
000003f0: 631e d23d a83b 123e 1877 b3be bf9c 7dbe
-0.31037694 -0.095954716 -0.10055366 0.09526128 -0.20033687 -0.18709937 -0.05288046 0.10681905
-0.25909486 0.051490206 0.056679044 0.063220054 -0.16916458 0.22120321 0.06633656 -0.053609364
0.09077672 0.14154641 -0.06906777 0.069818 -0.06923011 -0.049478833 -0.0143407695 -0.16372402
0.03081285 0.06363836 -0.056049652 0.14446793 -0.28225812 -0.2938895 -0.12985475 0.0039869375
0.011527717 -0.11824141 -0.062311582 -0.1432523 -0.15944508 0.021892693 0.1272806 -0.012960012
0.03121298 -0.29011768 -0.023465652 0.0017108563 -0.037558686 0.014031261 -0.27399462 -0.18908854
0.059512388 -0.13257766 -0.0036978319 0.09128583 -0.06032112 -0.041844234 -0.12540832 0.044142663
-0.20159566 -0.1355553 0.02808181 -0.07929195 0.02515631 -0.09785091 0.043142673 0.19899346
-0.16194469 0.047990944 -0.22699507 0.05600859 -0.022195263 -0.16513254 -0.19802678 0.112032466
-0.11768419 0.06126062 -0.16766952 -0.112258404 -0.047865942 -0.05300122 0.06661103 0.021425081
-0.20901524 0.04312311 0.108636566 -0.02247406 0.10013019 -0.28990167 0.11066699 -0.05392107
0.09570545 -0.20984869 -0.013163381 -0.09677138 0.13011345 0.05252792 0.06356343 -0.017794576
0.11210655 0.0925624 -0.23014854 -0.21716255 0.10429335 -0.061498348 -0.22806928 0.048640512
0.14379373 0.07351163 -0.21059287 -0.116084054 -0.19580047 0.07401882 -0.04357952 0.037350286
-0.049793098 -0.05479678 -0.02153624 0.0013185521 0.07604603 -0.22118023 0.05890821 -0.07915511
-0.102283545 -0.13818435 0.122668065 0.004428943 -0.14090198 0.110397086 0.09990967 -0.16471674
0.1533412 0.119633935 -0.1767309 0.15862328 0.055532563 -0.013695843 0.12763962 -0.14651866
-0.100164145 -0.059838526 -0.16152397 -0.021610983 -0.072242685 -0.3523805 -0.04130192 0.09306121
-0.43025652 -0.22048765 -0.33989465 -0.077057675 0.06393349 -0.12184836 0.046516854 -0.13431108
0.025304949 0.049854204 -0.12488572 -0.15335332 -0.028355611 -0.19364266 0.00971679 0.01069028
-0.0017015635 -0.14001514 0.05350693 -0.1381677 -0.0617485 -0.04638659 -0.32781053 0.028903197
-0.050865613 0.0044885827 -0.14208551 -0.023443423 0.031121941 -0.03296629 -0.02759863 0.115614906
0.054718085 -0.11353587 -0.1219407 0.08700105 -0.16930401 0.051784888 0.0805933 0.0992177
0.18153164 -0.2842759 -0.032490686 0.09189863 0.0491215 -0.05119656 0.023522802 -0.34502465
-0.07559711 -0.2823073 0.13935293 0.0919053 -0.21304296 -0.074748136 -0.05306591 -0.004559178
-0.1596738 -0.22507022 -0.080587946 0.07803921 -0.09212153 -0.03965571 -0.17235856 -0.027971338
-0.014982846 -0.09800463 -0.364788 -0.07170333 -0.17196922 0.061866857 0.12773563 -0.23939936
-0.41274613 -0.2116107 0.106283434 -0.06511174 -0.20829895 0.18712413 0.16356085 -0.42739487
0.10436404 -0.010389067 0.100333564 -0.25286508 -0.29516882 -0.15922059 0.07842189 -0.05281132
0.14496104 0.16074002 0.07674524 -0.02378362 -0.038324606 0.034463704 -0.00089075975 0.124929845
-0.05211367 -0.12075376 -0.06346246 0.0034739845 -0.27674192 0.0639279 0.105619945 -0.30508947
-0.033194352 -0.23262918 -0.022604622 -0.09433437 0.10259702 0.1428057 -0.350518 -0.24766825

fc1.bias f4 [10]
00000000: c47f 693e ac7f ad3e 2833 86be 7fbc d6bd
00000010: af3c 203d a09b 0cbd edc2 35bd 4824 263e
00000020: 3344 683d 6ed0 99be
0.22802645 0.33886468 -0.26210904 -0.104851715 0.039120372 -0.034328103 -0.04437535 0.16224778
0.056705665 -0.30041832
