models/model.pt (torch, 378536 bytes, 8 tensors)

conv1.weight f4 [32, 1, 3, 3]
-0.16420546 0.09541099 0.36531207 -0.024072818 -0.3357776 0.51010925 -0.2083723 -0.48690718
-0.019959236 -0.3640357 0.11809743 0.13822894 -0.14137864 -0.10385459 0.2909266 -0.15896468
0.35659724 -0.18745305 -0.41373923 -0.05296534 0.36846483 -0.35842022 -0.36408207 -0.6024692
-0.06861564 -0.068234734 -0.6008091 -0.27698684 -0.5225226 -0.42360774 -0.6399244 -0.19209753
-0.17783841 -0.19406123 0.5603857 0.4748299 -0.20742962 -0.20234734 -0.47183734 0.0048979
-0.15559289 -0.0100933965 0.12095952 0.2946629 0.36066133 0.035147525 -0.054421935 -0.027761417
-0.10951522 0.09987926 0.2575317 0.017763609 0.037930485 -0.046864353 0.09617349 0.16621752
-0.16748355 -0.18779261 0.27070898 -0.10654606 -0.118755855 0.27187672 0.0034627137 0.11430055
0.07431019 0.033163127 0.13997722 -0.28254083 0.16287401 0.14563364 0.0067667174 -0.07286349
-0.34864148 -0.18837503 0.48714548 0.029764904 -0.8084087 0.2607379 0.69559216 -0.43517932
-0.5938015 -0.21034198 -0.27101642 -0.29385847 0.06298591 -0.2799744 0.21575813 -0.3341952
-0.5071124 -0.0943817 -0.37253454 -0.4813303 -0.23795125 -0.49036172 0.18280724 0.124310605
-0.17129456 -0.16860999 0.38107198 -0.37169227 -0.4683103 -0.20580223 0.26222306 0.27458274
-0.3653692 0.06324527 0.19376314 -0.12054557 -0.30751488 -0.21129824 -0.074864596 0.22405012
0.33070582 0.12664393 0.22050694 -0.5195989 -0.06044555 -0.102926895 0.03400937 -0.61724865
0.08604959 0.32881483 -0.21371311 -0.051287953 0.43533593 0.0001798573 0.10588674 -0.04860507
0.010209744 -0.0980104 -0.25818583 -0.17424856 0.18836114 -0.08427941 0.3674822 0.12670158
0.1626642 0.07162437 0.05495988 -0.11777215 0.061220057 0.100383796 0.12615293 0.16213283
-0.18051417 0.16547413 0.0820007 0.094228715 0.16939373 -0.14807168 0.09195501 0.23143008
-0.49984732 -0.038979374 0.08345907 0.05213906 0.16309641 -0.3550529 -0.2424401 0.06932287
0.15841913 0.15762807 -0.32069483 -0.20074518 -0.11230815 0.21031539 -0.011678069 -0.31841764
0.07904708 0.20597748 0.17227629 -0.34192696 0.0113335075 0.29769707 -0.38258684 -0.13176723
0.4292198 -0.27136865 -0.12005916 0.42364272 0.09105856 -0.21798448 -0.2912795 -0.17579898
-0.44632772 -0.4465013 -0.4148544 -0.16500464 0.26483864 0.0474409 -0.35250098 -0.40253305
-0.14395496 -0.18635964 0.08205342 0.27459306 0.38058612 0.29474205 -0.30488694 0.3905565
-0.22155479 -0.15647185 0.41805544 -0.19358385 0.12460353 0.3756144 -0.6002038 0.26515517
0.40757433 0.35318607 0.30647945 -0.06302414 0.16415717 -0.33163556 -0.57241297 -0.64097446
0.114086725 0.25231436 0.045617636 0.06864089 0.25219062 -0.22047342 -0.53304535 -0.35505265
-0.20370401 0.27600917 -0.12913735 -0.040016446 -0.052995067 0.22714897 -0.63832206 0.25300562
0.20460187 -0.2296409 -0.22102648 0.0048454874 -0.12692295 0.17642668 0.05548092 -0.32097793
-0.39625368 0.27339354 0.16145778 -0.0844315 0.3371033 -0.11576519 -0.3249239 -0.081649505
-0.17756788 0.21110024 0.072464235 0.16516136 -0.43256304 -0.25921568 0.06541978 0.052743904
00000000: 7a25 28be d666 c33d 2f0a bb3e 5c34 c5bc
00000010: 0beb abbe 8596 023f 8c5f 55be e64b f9be
00000020: 8d81 a3bc e362 babe 11dd f13d e38b 0d3e
00000030: 90c5 10be b7b1 d4bd 55f4 943e a3c7 22be
00000040: ea93 b63e b1f3 3fbe a1d5 d3be 2ff2 58bd
00000050: 6ca7 bc3e db82 b7be f768 babe 6c3b 1abf
00000060: 5b86 8cbd a7be 8bbd a0ce 19bf 38d1 8dbe
00000070: 0bc4 05bf 1de3 d8be 16d2 23bf 37b5 44be
00000080: 461b 36be fdb7 46be 7075 0f3f e81c f33e
00000090: 6e68 54be 2434 4fbe aa94 f1be 907e a03b
000000a0: be53 1fbe c65e 25bc a0b9 f73d 0ede 963e
000000b0: 9aa8 b83e daf6 0f3d 89e9 5ebd e96b e3bc
000000c0: 8449 e0bd 7f8d cc3d 32db 833e fd84 913c
000000d0: ff5c 1b3d d6f4 3fbd 9bf6 c43d ed34 2a3e
000000e0: cf80 2bbe b54c 40be 5e9a 8a3e d234 dabd
000000f0: 4536 f3bd 6d33 8b3e b2ee 623b 6816 ea3d
00000100: f12f 983d 0fd6 073d 3056 0f3e 31a9 90be
00000110: 72c8 263e fc20 153e 57bb dd3b 7439 95bd
00000120: 2381 b2be 62e5 40be 226b f93e 87d5 f33c
00000130: dff3 4ebf 707f 853e 5412 323f d3cf debe
00000140: 6003 18bf e363 57be aac2 8abe 9e74 96be
00000150: c2fe 803d ce58 8fbe b3ef 5c3e a21b abbe
00000160: 1ed2 01bf 314b c1bd d9bc bebe ed70 f6be
00000170: 7ea9 73be b110 fbbe d231 3b3e 8f96 fe3d
00000180: d767 2fbe 19a8 2cbe de1b c33e 734e bebe
00000190: 5ec6 efbe d2bd 52be 1a42 863e 1c96 8c3e
000001a0: ac11 bbbe bc86 813d d869 463e 99e0 f6bd
000001b0: 9772 9dbe 915e 58be 9c52 99bd 656d 653e
000001c0: 4652 a93e f2ae 013e 92cc 613e 6f04 05bf
000001d0: c195 77bd 56cb d2bd 694d 0b3d 0204 1ebf
000001e0: c43a b03d 6b5a a83e 9cd7 5abe 5113 52bd
000001f0: 5ae4 de3e 1498 3c39 26db d83d 1c16 47bd
00000200: c546 273c adb9 c8bd ef30 84be 376e 32be
00000210: bee1 403e af9a acbd a026 bc3e 0fbe 013e
00000220: 7291 263e ccaf 923d 9c1d 613d 8632 f1bd
00000230: e2c1 7a3d 0596 cd3d 3c2e 013e 2606 263e
00000240: b5d8 38be 0d72 293e fcef a73d fcfa c03d
00000250: 8d75 2d3e 1aa0 17be e952 bc3d 02fc 6c3e
00000260: fdeb ffbe d6a8 1fbd 97ec aa3d c48f 553d
00000270: bf02 273e 7ec9 b5be 3842 78be 26f9 8d3d
00000280: a038 223e 4169 213e 1d32 a4be 2590 4dbe
00000290: d101 e6bd eb5c 573e 5f55 3fbc a307 a3be
000002a0: 6fe3 a13d c3eb 523e 3269 303e 0d11 afbe
000002b0: 2db0 393c c06b 983e 6ce2 c3be fded 06be
000002c0: b3c2 db3e d5f0 8abe 94e1 f5bd b3e7 d83e
000002d0: e97c ba3d 5337 5fbe 9622 95be a604 34be
000002e0: 1185 e4be d29b e4be cc67 d4be faf6 28be
000002f0: ee98 873e 6451 423d 027b b4be d018 cebe
00000300: ee68 13be 10d5 3ebe a00b a83d 7697 8c3e
00000310: 2fdc c23e 6ee8 963e 241a 9cbe 06f7 c73e
00000320: 42df 62be 283a 20be 5d0b d63e d83a 46be
00000330: 2330 ff3d 8850 c03e f5a6 19bf 6bc2 873e
00000340: 95ad d03e ced4 b43e e0ea 9c3e cd12 81bd
00000350: d118 283e 23cc a9be a889 12bf e716 24bf
00000360: 4da6 e93d 592f 813e 8fd9 3a3d 9893 8c3d
00000370: 211f 813e c9c3 61be a975 08bf 76c9 b5be
00000380: c997 50be 1351 8d3e 953c 04be 49e8 23bd
00000390: 5b11 59bd bd99 683e 1369 23bf f489 813e
000003a0: 2783 513e fc26 6bbe c454 62be e5c6 9e3b
000003b0: 17f8 01be 32a9 343e f63f 633d 3857 a4be
000003c0: c3e1 cabe 3dfa 8b3e 3055 253e 6cea acbd
000003d0: ce98 ac3e 4d16 edbd 6d5c a6be db37 a7bd
000003e0: 5bd4 35be a92a 583e 2168 943d 0f20 293e
000003f0: e778 ddbe ebb7 84be cefa 853d fe09 583d

conv1.bias f4 [32]
-0.14725964 -0.15293352 0.32787868 -0.23014909 -0.15264228 -0.2674415 -0.49956927 -0.34099364
-0.23980226 0.034379896 -0.19679461 -0.111522555 -0.1254518 -0.062032882 -0.1319551 -0.095834345
-0.038108762 -0.2381113 -0.15753835 -0.0706761 0.20491953 -0.09445886 -0.1060551 -0.025590632
-0.25482196 -0.082222335 -0.17502502 -0.29082957 -0.06979985 -0.052835558 -0.07088139 -0.05645155
00000000: 3bcb 16be 9b9a 1cbe b7df a73e 34ac 6bbe
00000010: 424e 1cbe 18ee 88be 8bc7 ffbe b896 aebe
00000020: b98e 75be efd1 0c3d 8784 49be f065 e4bd
00000030: 7076 00be 3116 7ebd 3d1f 07be cc44 c4bd
00000040: ef17 1cbd 73d3 73be bc51 21be a2be 90bd
00000050: 6dd6 513e a673 c1bd 6b33 d9bd 72a3 d1bc
00000060: 0678 82be 2f64 a8bd c239 33be 9de7 94be
00000070: 39f3 8ebd 196a 58bd 432a 91bd be39 67bd

conv2.weight f4 [64, 32, 3, 3]
0.08302211 0.20140237 0.2817501 -0.027480617 -0.20510234 0.0042761588 -0.24186191 -0.3151678
-0.23044565 0.16184859 0.16169184 0.100296706 0.035042766 -0.058139328 0.22149546 0.040846433
-0.024119956 0.12744187 -0.021245537 -0.08932938 -0.093352854 -0.13597895 -0.10481383 -0.33611333
-0.19465613 -0.29322678 -0.661384 -0.014515702 -0.20869753 -0.13009939 -0.15117754 -0.09810371
0.013245668 0.078830734 0.044798408 0.03647596 0.06434486 -0.08377605 -0.098099 0.018664327
0.0261453 0.022566767 0.12009813 0.14613275 -0.050066255 0.059655786 -0.054949827 0.022596018
0.014235662 -0.10371799 0.048701778 -0.02960187 0.024128541 0.050815366 0.056938153 -0.008314916
-0.02954655 0.016538743 -0.0066472306 -0.051719695 0.109013945 0.020734474 -0.023800299 0.07582407
-0.010629534 0.00064918696 0.038984146 -0.08631352 0.089934364 0.07650435 0.010811983 -0.018420635
0.27880013 0.070116684 0.082970195 -0.016731491 -0.20558597 -0.1351606 -0.020222925 -0.41424423
-0.43807647 -0.1494674 -0.07827314 -0.0674443 -0.17837752 -0.07887976 -0.11796099 -0.17650783
-0.2008424 -0.41836154 -0.16537601 -0.24687609 -0.0939379 -0.26662722 -0.12506273 0.13275126
-0.05636943 0.0014910941 -0.028403437 0.022652864 0.006451522 0.06683292 0.028492235 -0.13825858
-0.35933867 -0.08557809 -0.100172006 -0.448288 0.046569806 0.048944347 0.06648042 0.14072002
0.14684807 0.01292298 -0.036081146 0.17997612 0.07544206 0.19726653 0.13859001 -0.039176323
0.04776763 -0.09360656 -0.23551111 0.049575724 0.0180923 -0.30080923 0.029746743 0.0057439464
0.0082851825 0.028915066 0.11370706 -0.0024346847 0.0395843 0.1262217 -0.061682023 -0.02180102
-0.05472298 0.0012510206 0.0148827685 -0.09352082 0.06748695 -0.011535957 0.09457691 0.041801017
0.07195626 -0.017110448 -0.10453819 0.071101844 -0.08443932 0.044062268 -0.059122328 0.019399583
0.17448547 0.052542984 -0.04790475 0.05634524 0.08407154 0.069740675 -0.014929203 0.09306216
0.038933147 -0.1771196 0.04071065 -0.047203746 -0.034736782 0.05341929 0.0032651355 -0.17683756
0.009665964 -0.009954319 -0.31560186 0.1165551 -0.022956805 0.18933922 -0.09648926 -0.11034556
0.18236507 -0.081210315 -0.1419228 -0.08534425 -0.13248563 -0.11823077 -0.1726819 -0.17409198
-0.12825413 0.033328597 -0.0019072313 -0.06670405 -0.20888476 -0.010468797 -0.009064122 -0.097540826
0.031211842 0.1007351 -0.0058763865 0.121175066 0.21641012 -0.064888544 0.13541514 0.1433828
0.030774333 0.11142251 0.024906173 0.044804104 -0.1247186 -0.06641193 0.18162267 0.018344915
0.036055014 -0.15213987 0.068370745 -0.06661074 -0.14805222 -0.03837089 -0.049330603 0.11274898
-0.070770726 0.014386651 0.0066214753 0.054886896 -0.14838341 -0.08543047 -0.023763312 0.055977765
0.07531101 0.08114428 -0.006295931 -0.020643098 0.07640568 -0.08920298 -0.15269151 0.032284256
-0.03715398 -0.021512683 0.06637906 -0.07704599 0.036429577 0.044861455 -0.025351368 0.094031915
0.15739256 0.08970982 -0.028189968 0.07715773 -0.0452744 -0.057014357 0.03948685 0.13222446
-0.05604448 0.067442104 0.24867132 -0.035318274 0.046020247 -0.03507123 0.12968118 -0.01813949
00000000: 7f07 aa3d 6c3c 4e3e 8d41 903e 081f e1bc
00000010: 5906 52be 051f 8c3b a6aa 77be ad5d a1be
00000020: f2f9 6bbe a3bb 253e 8c92 253e 5c68 cd3d
00000030: 0189 0f3d 8123 6ebd b5cf 623e 974e 273d
00000040: 3797 c5bc 1f80 023e 1f0b aebc 52f2 b6bd
00000050: c82f bfbd 113e 0bbe a2a8 d6bd 0c17 acbe
00000060: f053 47be d221 96be 7650 29bf 44d3 6dbc
00000070: ceb4 55be c638 05be 49ce 1abe 99ea c8bd
00000080: 5c04 593c 0272 a13d 897e 373d d167 153d
00000090: 3dc7 833d c792 abbd 21e8 c8bd eee5 983c
000000a0: ab2e d63c f1dd b83c 02f6 f53d d3a3 153e
000000b0: 4612 4dbd a059 743d 1213 61bd 491b b93c
000000c0: b23c 693c 196a d4bd 847b 473d 9f7f f2bc
000000d0: 38a9 c53c c623 503d fb37 693d 493b 08bc
000000e0: 9b0b f2bc 427c 873c 03d1 d9bb 08d8 53bd
000000f0: b442 df3d 58db a93c d8f8 c2bc a649 9b3d
00000100: 7f27 2ebc 332e 2a3a d7ad 1f3d 25c5 b0bd
00000110: 822f b83d 50ae 9c3d be24 313c dfe6 96bc
00000120: e4be 8e3e 5699 8f3d 47ec a93d 7b10 89bc
00000130: 2185 52be 8a67 0abe 8caa a5bc d217 d4be
00000140: 8f4b e0be fb0d 19be ab4d a0bd 3d20 8abd
00000150: 99a8 36be b68b a1bd 8895 f1bd 78be 34be
00000160: a1a9 4dbe 7c33 d6be 5458 29be 16cd 7cbe
00000170: 8462 c0bd 5d83 88be 7210 00be f2ef 073e
00000180: a2e3 66bd d170 c33a 53ae e8bc 8092 b93c
00000190: 4a67 d33b b3df 883d 8c68 e93c a893 0dbe
000001a0: 3dfb b7be 9143 afbd fb26 cdbd 0186 e5be
000001b0: fbbf 3e3d de79 483d e326 883d e918 103e
000001c0: 575f 163e e8ba 533c d3c9 13bd a94b 383e
000001d0: 5e81 9a3d 3d00 4a3e 8aea 0d3e 5a77 20bd
000001e0: fea7 433d ccb4 bfbd d329 71be ea0f 4b3d
000001f0: 4e36 943c ab03 9abe 71af f33c b737 bc3b
00000200: 93be 073c 4adf ec3c 3fdf e83d 3b8f 1fbb
00000210: 2623 223d 4340 013e 4aa6 7cbd 0d98 b2bc
00000220: 3425 60bd 49f9 a33a dbd6 733c d887 bfbd
00000230: 9936 8a3d 5001 3dbc 8ab1 c13d 8b37 2b3d
00000240: ce5d 933d 362b 8cbc 1e18 d6bd d89d 913d
00000250: 86ee acbd a37a 343d 412a 72bd e0eb 9e3c
00000260: 52ac 323e 5037 573d c537 44bd 44ca 663d
00000270: b32d ac3d 33d4 8e3d 9e99 74bc 6097 be3d
00000280: 5d78 1f3d d75e 35be 36c0 263d b758 41bd
00000290: 2848 0ebd 2fce 5a3d e2fb 553b e814 35be
000002a0: fe5d 1e3c 7117 23bc 9196 a1be 71b4 ee3d
000002b0: e90f bcbc 24e2 413e 299c c5bd dafc e1bd
000002c0: e9bd 3a3e 9851 a6bd 3654 11be f7c8 aebd
000002d0: 50aa 07be f922 f2bd 86d3 30be 2b45 32be
000002e0: 0d55 03be 9183 083d 10fc f9ba 229c 88bd
000002f0: e3e5 55be 5185 2bbc af81 14bc 7cc3 c7bd
00000300: faaf ff3c 344e ce3d b48e c0bb a22a f83d
00000310: 9d9a 5d3e 49e4 84bd 44aa 0a3e f1d2 123e
00000320: 741a fc3c 7c31 e43d 0808 cc3c 8284 373d
00000330: 776c ffbd fa02 88bd 4bfb 393e 1348 963c
00000340: 6cae 133d 8eca 1bbe f605 8c3d 366b 88bd
00000350: 009b 17be cb2a 1dbd e30e 4abd f0e8 e63d
00000360: 3ef0 90bd fdb5 6b3c f6f8 d83b 15d1 603d
00000370: d2f1 17be 2cf6 aebd 47ab c2bc f148 653d
00000380: a93c 9a3d f92e a63d 194e cebb b71b a9bc
00000390: 957a 9c3d 0db0 b6bd 2a5b 1cbe 7f3c 043d
000003a0: c62e 18bd 5e3b b0bc bff1 873d 4aca 9dbd
000003b0: 2e37 153d a5c0 373d acad cfbc ce93 c03d
000003c0: 842b 213e c8b9 b73d a6ee e6bc df04 9e3d
000003d0: a671 39bd e387 69bd f7bc 213d d965 073e
000003e0: e68e 65bd 161f 8a3d b2a3 7e3e e5a9 10bd
000003f0: ba7f 3c3d daa6 0fbd 25cb 043e 4599 94bc

conv2.bias f4 [64]
-0.007916343 -0.023956485 -0.027808834 -0.058288336 0.007481901 -0.040958308 0.008688394 -0.014030289
-0.10024137 -0.0808616 0.04040268 0.004374495 0.0022235224 -0.05906125 -0.011472574 0.0006085359
-0.033774327 -0.034142233 -0.09937997 -0.08073272 0.028119732 -0.10695693 -0.01822513 0.013954133
-0.10141532 -0.00035353255 -0.050378904 -0.03925327 -0.009250578 -0.031836625 -0.0031832084 -0.034919266
-0.021500302 -0.01931699 -0.08207286 -0.08070902 -0.026273679 -0.0002480151 -0.07512622 -0.099748336
-0.0012800582 0.012486489 -0.011215228 -0.07440151 -0.05278617 -0.08490929 -0.06268303 0.017402183
0.090481035 0.009477314 -0.07596325 -0.016866894 0.027916439 0.009308273 0.02703732 -0.06368956
0.0048109717 -0.09934848 -0.03450044 -0.05963507 -0.13373882 0.063126706 0.031201817 -0.015193036
00000000: 8db3 01bc 6440 c4bc 5acf e3bc c0bf 6ebd
00000010: bc2a f53b e6c3 27bd c459 0e3c 4cdf 65bc
00000020: 594b cdbd c49a a5bd 487d 253d ec57 8f3b
00000030: 84b8 113b 36ea 71bd 77f7 3bbc 2786 1f3a
00000040: f356 0abd bad8 0bbd ba87 cbbd 3257 a5bd
00000050: 5a5b e63c 3c0c dbbd de4c 95bc e09f 643c
00000060: d6b2 cfbd 565a b9b9 1c5a 4ebd 09c8 20bd
00000070: bc8f 17bc 1f67 02bd 609d 50bb 8107 0fbd
00000080: 6721 b0bc aa3e 9ebc d115 a8bd c54a a5bd
00000090: e63b d7bc 0608 82b9 c7db 99bd db48 ccbd
000000a0: a0c7 a7ba 2194 4c3c 13c0 37bc d25f 98bd
000000b0: 5036 58bd ece4 adbd f65f 80bd 068f 8e3c
000000c0: 1f4e b93d bc46 1b3c 9f92 9bbd 712c 8abc
000000d0: 04b1 e43c ba81 183c 5f7d dd3c ac6f 82bd
000000e0: 5ba5 9d3b 3777 cbbd 5550 0dbd e743 74bd
000000f0: d4f2 08be 9348 813d f49a ff3c 36ec 78bc

conv3.weight f4 [128, 64, 3, 3]
-0.056609266 0.07892698 0.0641987 0.036432553 -0.02166646 -0.15154013 0.04100007 0.09925883
-0.10492043 0.15833522 0.1630256 -0.00013134688 0.020239985 -0.110231906 0.015515165 -0.06271599
0.13022034 0.023951808 0.049473256 -0.113310955 -0.11279317 -0.03831141 0.14164382 -0.001996622
-0.17173523 -0.33214396 -0.0052505154 0.047170356 0.004506573 -0.043668356 0.03675521 -0.0020604602
-0.08158055 0.1889044 -0.09861842 0.14160869 -0.065997615 -0.17709595 -0.0028894204 -0.025073184
-0.15919079 -0.09360559 -0.11138639 0.008031762 0.08623454 0.025802283 0.0435627 0.007512092
-0.042679276 0.025993131 -0.019239262 -0.060212146 -0.09619046 -0.09562759 -0.089938484 -0.09568771
-0.12349441 0.024747793 -0.07309128 -0.08753297 0.09551844 -0.07258797 0.25029644 -0.008174217
-0.037546292 -0.039030116 -0.07060153 0.03316176 0.11492386 -0.042463433 0.064432986 -0.052182097
-0.27326745 -0.057691637 0.04648548 0.11873361 -0.14363939 -0.028666152 0.1818102 -0.033014182
-0.17535593 0.08404084 0.14262086 0.103102826 0.08742929 -0.011891132 -0.029776853 -0.022155976
-0.025251882 -0.03306117 0.008051795 -0.08754541 -0.24341968 0.22583391 -0.17863375 -0.014909901
0.08952566 -0.015644044 0.26346648 0.008584707 -0.0043290984 -0.06204825 -0.094944045 -0.0188128
0.055503484 0.039039627 0.007957824 -0.05925158 0.0024550564 0.041419692 0.07013647 0.0127998525
0.05829784 -0.036085784 0.010260546 -0.07791601 -0.053330608 -0.030066807 0.03744169 -0.012376336
0.018558176 -0.020565053 0.013428423 -0.052247383 -0.030394372 0.005206232 -0.03737302 0.03875343
0.04637108 -0.019987904 -0.03298699 0.022030799 0.01454564 -0.06400458 -0.06686703 -0.08632016
-0.12941836 -0.0928618 -0.09529087 -0.042896155 -0.055146255 0.3041966 0.015133666 -0.089896195
0.040704586 0.03448636 0.037741262 -0.032593742 -0.041006327 -0.011301712 -0.026616322 -0.023656
-0.005014438 -0.073059276 -0.094326206 -0.083749235 -0.08498269 0.00260316 -0.3297087 -0.016824936
-0.051500637 -0.25889695 0.09004764 0.101893455 0.04959769 0.105915986 -0.021588031 -0.051457856
0.16266489 0.10276193 0.13726114 0.11691061 0.100804515 0.18649921 0.09435034 0.04558587
-0.027439605 -0.023364281 -0.08117698 0.019028109 -0.0696072 -0.076725125 -0.083583795 -0.07291191
0.028028345 -0.10296432 0.14854558 0.02376794 0.13813622 0.007080765 0.019845197 -0.022055324
0.07850557 -0.08981309 0.09975116 -0.018921318 0.087207146 0.067399226 0.019956812 0.04035266
0.019959288 0.0011886643 -0.030918287 0.023562595 -0.012387358 0.038970966 -0.05280465 -0.009596567
-0.04674954 -0.002195692 0.032176815 0.025066033 -0.020255854 -0.016162679 -0.040687025 0.013055936
0.031292837 0.034637976 0.03287995 -0.0039899885 0.009018548 0.014002966 -0.0126614515 -0.04402769
0.0057970253 -0.07142264 0.12032586 0.044659894 -0.121479474 0.037886586 0.050835244 -0.044758275
0.0119100325 -0.12542449 -0.10224826 -0.027623713 -0.07730406 -0.07148182 -0.004213266 0.09590137
0.00334635 -0.050312594 -0.0710546 0.15409386 0.19314143 -0.028783944 -0.015287085 0.1025557
-0.00082249223 -0.24490777 -0.076476656 -0.033696335 -0.063711174 -0.04462387 0.032066736 -0.08672281
00000000: 1edf 67bd 78a4 a13d 9c7a 833d 4d3a 153d
00000010: dc7d b1bc 562d 1bbe b0ef 273d 3748 cb3d
00000020: 86e0 d6bd a122 223e 2ff0 263e 29ba 09b9
00000030: 53ce a53c 44c1 e1bd 5233 7e3c 3e71 80bd
00000040: 7b58 053e 9536 c43c 78a4 4a3d 930f e8bd
00000050: 1b00 e7bd 6dec 1cbd 140b 113e c2d9 02bb
00000060: 5cdb 2fbe c60e aabe 840c acbb b435 413d
00000070: e0ab 933b 97dd 32bd a28c 163d c908 07bb
00000080: b413 a7bd 2870 413e 74f8 c9bd de01 113e
00000090: c229 87bd a458 35be 6e5c 3dbb 4766 cdbc
000000a0: e902 23be 4ab4 bfbd 8c1e e4bd a797 033c
000000b0: bc9b b03d 4f5f d33c cd6e 323d ff27 f63b
000000c0: 77d0 2ebd 8cef d43c a89b 9dbc 03a1 76bd
000000d0: 81ff c4bd 66d8 c3bd ab31 b8bd ebf7 c3bd
000000e0: a3ea fcbd e2bb ca3c e2b0 95bd 7c44 b3bd
000000f0: 2c9f c33d 00a9 94bd db26 803e 27ed 05bc
00000100: 24ca 19bd 0bde 1fbd 8997 90bd a0d4 073d
00000110: 335d eb3d 23ee 2dbd 71f5 833d e5bc 55bd
00000120: b6e9 8bbe 114e 6cbd 8f67 3e3d 9b2a f33d
00000130: 3416 13be 47d5 eabc 742c 3a3e e139 07bd
00000140: 8190 33be 9b1d ac3d 340b 123e 9327 d33d
00000150: 210e b33d 06d3 42bc 96ee f3bc 7380 b5bc
00000160: 09dd cebc 266b 07bd adeb 033c 024b b3bd
00000170: 0243 79be 0141 673e c4eb 36be a848 74bc
00000180: 3b59 b73d f027 80bc 14e5 863e dfa6 0c3c
00000190: 1cdb 8dbb 4e26 7ebd 0672 c2bd 4d1d 9abc
000001a0: 9f57 633d 04e8 1f3d 8861 023c c9b1 72bd
000001b0: 03e5 203b b2a7 293d b6a3 8f3d 79b6 513c
000001c0: b7c9 6e3d b0ce 13bd d91b 283c 6e92 9fbd
000001d0: 3271 5abd aa4e f6bc 755c 193d 1ec6 4abc
000001e0: 5107 983c 0b78 a8bc e302 5c3c 5a01 56bd
000001f0: 9efd f8bc 0a99 aa3b 7414 19bd ebbb 1e3d
00000200: 9aef 3d3d acbd a3bc 5e1d 07bd ef79 b43c
00000210: d650 6e3c d514 83bd 95f1 88bd a0c8 b0bd
00000220: 3f86 04be 542e bebd dc27 c3bd e1b3 2fbd
00000230: 0ae1 61bd a8bf 9b3e 32f3 773c 7f1b b8bd
00000240: dab9 263d 9241 0d3d 9596 1a3d 0481 05bd
00000250: 40f6 27bd d12a 39bc 790a dabc 3aca c1bc
00000260: 2850 a4bb 1aa0 95bd 192e c1bd b884 abbd
00000270: 680b aebd c799 2a3b 94cf a8be 73d4 89bc
00000280: 55f2 52bd 248e 84be e66a b83d 84ad d03d
00000290: f326 4b3d 7bea d83d 62d9 b0bc 79c5 52bd
000002a0: a091 263e d974 d23d 2f8e 0c3e d46e ef3d
000002b0: 9972 ce3d a6f9 3e3e c03a c13d 40b8 3a3d
000002c0: 06c9 e0bc 7366 bfbc 1e40 a6bd d6e0 9b3c
000002d0: 388e 8ebd 1022 9dbd fb2d abbd d752 95bd
000002e0: b39b e53c f5de d2bd 551c 183e fcb4 c23c
000002f0: 9573 0d3e c305 e83b 6592 a23c 5ead b4bc
00000300: 87c7 a03d edef b7bd 564a cc3d e100 9bbc
00000310: a999 b23d 9b08 8a3d 787c a33c d548 253d
00000320: a981 a33c f5cc 9b3a 5948 fdbc 5806 c13c
00000330: 58f4 4abc 05a0 1f3d b049 58bd eb3a 1dbc
00000340: 727c 3fbd 99e5 0fbb d6cb 033d 4857 cd3c
00000350: 9bef a5bc 9867 84bc 70a7 26bd 91e8 553c
00000360: eb2c 003d 8de0 0d3d 20ad 063d 73be 82bb
00000370: 88c2 133c b26c 653c fa71 4fbc 6156 34bd
00000380: f9f4 bd3b 0846 92bd 686d f63d 4bed 363d
00000390: 3bca f8bd f72e 1b3d 9e38 503d 7454 37bd
000003a0: 4c22 433c 476f 00be 8967 d1bd 204b e2bc
000003b0: 9751 9ebd 0f65 92bd 700f 8abb f067 c43d
000003c0: 704e 5b3b 9414 4ebd 1385 91bd c8ca 1d3e
000003d0: dec6 453e 4ecc ebbc af76 7abc b908 d23d
000003e0: 859c 57ba 1ac9 7abe cb9f 9cbd 2b05 0abd
000003f0: 017b 82bd 85c7 36bd 6958 033d bb9b b1bd

conv3.bias f4 [128]
-0.090426855 -0.041957736 -0.04211788 -0.056181602 -0.031084888 -0.059836507 -0.095351 -0.0056136213
-0.047420464 0.00073117064 -0.0014668043 -0.017276494 -0.060326256 -0.013589372 -0.0059316955 -0.002239149
-0.04447604 -0.06962079 0.0024845595 -0.065530546 -0.010493894 -0.055918466 -0.068612464 -0.0288732
0.0022378685 -0.074049234 -0.10216498 -0.0076182005 -0.11544628 -0.08353527 -0.040904652 -0.02380785
-0.08807063 -0.019617425 0.0067147226 -0.08125241 -0.053603526 -0.010691756 -0.041021608 0.013035909
-0.09323141 -0.046777617 -0.05919165 -0.04201938 -0.0750367 -0.029124873 -0.027970543 -0.01443188
-0.081856966 -0.025426539 0.00020579359 -0.06549169 0.043766785 -0.019367667 -0.008348152 0.0026144013
-0.06541131 0.02216816 0.0019301432 -0.02366644 -0.019163435 -0.0056013623 -0.048097722 -0.0053893873
-0.11475839 -0.12846111 -0.022399276 -0.024673866 -0.013711023 -0.07599045 -0.020232217 0.039039493
-0.071401834 -0.009166988 -0.057193153 -0.02670917 -0.07293953 -0.089423686 -0.050007854 -0.025134414
-0.09042347 -0.10409149 -0.009527548 -0.038040757 -0.0003447098 -0.0365266 -0.07539377 -0.057470933
-0.081644885 -0.04141312 -0.041264843 -0.118780546 -0.0034696918 -0.05997073 0.0041025686 0.0019175096
-0.009784891 -0.110367574 -0.10026682 -0.06371914 -0.04173234 -0.06562903 -0.049260892 -0.027724179
-0.1000093 -0.04813174 0.0378004 -0.020558616 -0.054554727 -0.0070907488 -0.072029345 -0.039423175
-0.052908793 -0.09924397 -0.019415632 -0.002976051 -0.028797038 -0.019113513 0.042999256 -0.05494459
0.033647668 0.02614732 -0.100183375 -0.034717273 -0.003415733 -0.044259988 0.049260847 -0.028737413
00000000: b731 b9bd e0db 2bbd cc83 2cbd ae1e 66bd
00000010: bca5 febc 2017 75bd 6347 c3bd 78f2 b7bb
00000020: f63b 42bd 08ac 3f3a c941 c0ba 6f87 8dbc
00000030: aa18 77bd f5a5 5ebc ab5e c2bb b0be 12bb
00000040: 822c 36bd 5895 8ebd fed3 223b e134 86bd
00000050: 95ee 2bbc c30a 65bd b184 8cbd 7d87 ecbc
00000060: 34a9 123b 20a7 97bd df3b d1bd 19a2 f9bb
00000070: 196f ecbd 8a14 abbd a38b 27bd ae08 c3bc
00000080: 605e b4bd b9b4 a0bc 2d07 dc3b aa67 a6bd
00000090: 5f8f 5bbd 7a2c 2fbc 4606 28bd 9194 553c
000000a0: 1cf0 bebd e399 3fbd f272 72bd 831c 2cbd
000000b0: d7ac 99bd 4997 eebc 7b22 e5bc b173 6cbc
000000c0: a0a4 a7bd 514b d0bc 4cca 5739 8220 86bd
000000d0: cd44 333d f1a8 9ebc b0c6 08bc 6056 2b3b
000000e0: 5df6 85bd 009a b53c dcfc fc3a 1fe0 c1bc
000000f0: a3fc 9cbc a28b b7bb 1e02 45bd 7599 b0bb
00000100: 7206 ebbd 4f8b 03be b07e b7bc d920 cabc
00000110: 33a4 60bc e2a0 9bbd 09be a5bc e0e7 1f3d
00000120: 203b 92bd 2231 16bc 5e43 6abd 30cd dabc
00000130: 5261 95bd c423 b7bd 09d5 4cbd b0e6 cdbc
00000140: f12f b9bd eb2d d5bd 6f19 1cbc a0d0 1bbd
00000150: 2bba b4b9 eb9c 15bd 0d68 9abd a466 6bbd
00000160: 6f35 a7bd cea0 29bd 5305 29bd 3743 f3bd
00000170: c563 63bb dea3 75bd d76e 863b f254 fb3a
00000180: cf50 20bc 6508 e2bd b158 cdbd 2e7f 82bd
00000190: 88ef 2abd 8368 86bd cac5 49bd d11d e3bc
000001a0: add1 ccbd ca25 45bd 98d4 1a3d 8b6a a8bc
000001b0: c774 5fbd 8359 e8bb 1f84 93bd 327a 21bd
000001c0: e4b6 58bd 6c40 cbbd 880d 9fbc da09 43bb
000001d0: c4e7 ebbc f193 9cbc fd1f 303d 940d 61bd
000001e0: 23d2 093d e832 d63c f12c cdbd b333 0ebd
000001f0: 7eda 5fbb f649 35bd bec5 493d b96a ebbc

fc1.weight f4 [10, 128]
0.02296683 -0.19571358 -0.03435343 -0.09124106 -0.046114042 -0.0636169 -0.26130807 0.13173735
-0.10493796 -0.20313647 0.07936482 0.09267714 -0.31432584 0.06382445 0.007102548 -0.2881124
0.114803106 0.09314609 0.10273843 -0.10299449 0.14075023 -0.14741671 -0.08504374 -0.044143416
-0.123468705 0.061223462 0.059783395 -0.0060167806 -0.30924758 -0.25140402 -0.13292691 0.05463913
-0.0060205976 -0.07779647 0.11163352 -0.10894052 -0.24685067 0.010569279 -0.064169444 0.08251012
-0.059808724 0.06714555 -0.27495697 -0.073552355 -0.08302271 -0.119251035 -0.036319084 -0.02564649
-0.23844057 0.117930084 -0.053417455 0.0835145 0.11012229 0.12851638 -0.04724074 0.12137908
-0.05760629 -0.06737736 0.028550046 -0.1987204 0.07869626 -0.15009841 0.116661824 -0.16386175
-0.011089793 -0.019123998 -0.39390823 -0.0353607 0.031458516 -0.098957896 -0.08151307 0.13799195
0.08776106 -0.05247501 0.03734154 0.09466949 -0.08099198 -0.17708255 0.06677749 -0.11645772
0.05395983 0.016083132 -0.09540128 -0.052497733 -0.16358097 0.12492206 -0.25153774 0.002444181
-0.247129 -0.062066317 -0.05106891 -0.20445178 -0.025546402 -0.28575265 0.08480733 0.117426135
0.04205406 -0.2727678 -0.36765873 0.20170338 0.03631195 0.019714048 -0.25255212 -0.07791816
0.10912329 -0.0050050924 0.03269034 0.1387511 0.06357714 0.05250346 0.13141209 -0.4078465
-0.13191721 0.07412213 0.046189275 -0.056269225 -0.15747193 0.05581471 -0.23453279 0.004026549
0.0040052054 -0.0019431787 -0.32301134 -0.066934384 -0.38935453 -0.067073666 0.09133501 -0.02379648
-0.01154784 -0.010608608 -0.079017855 -0.37953037 -0.08788477 -0.025595548 -0.20972265 -0.3491552
-0.13175757 -0.014936011 0.11745885 0.17540559 -0.15872423 0.03695488 0.09726115 0.1260112
0.037501503 -0.2913799 0.17507625 -0.08616048 0.0036927196 -0.04971124 0.11548739 -0.009907614
-0.21526313 -0.19088931 0.13667724 0.08966535 0.007909696 -0.06433832 -0.013241589 -0.3067956
-0.017140092 -0.082830355 -0.25749338 -0.076590985 -0.25572127 -0.057422783 -0.49697456 -0.40493244
-0.09777786 0.15714039 0.06709391 -0.33252096 -0.24256365 0.12732992 -0.0644166 0.003825834
0.053150684 -0.13529544 -0.06515359 -0.050129928 0.11238446 -0.16316521 -0.05883114 0.013857577
0.076129004 -0.19158769 -0.06618821 0.12837586 -0.20441528 0.07294627 -0.2638103 -0.21723875
0.027640896 0.07000072 0.12766688 -0.001197136 -0.1497015 0.113753796 0.019066257 0.112981156
-0.24857056 -0.0411641 -0.23780708 -0.20975313 -0.08914089 0.15369168 -0.43024054 -0.21298647
-0.11775494 -0.1948897 0.086688004 -0.04047295 -0.28677347 -0.15864335 0.039543197 0.06816972
-0.10535506 -0.065534115 -0.07663997 -0.0731843 -0.060362577 -0.18293941 0.1257036 0.20144612
0.03825024 0.043392017 0.12843308 -0.05800874 -0.15723711 -0.023303935 -0.14349176 -0.07942926
-0.24923664 0.011123368 0.1162901 -0.35890496 0.06535342 -0.0055052335 -0.17488962 -0.06639106
-0.1435855 -0.11979908 -0.23982812 0.039867464 0.025712928 0.039298687 0.14612211 0.0408018
0.124948904 -0.06769679 -0.016922373 0.060797393 0.22929879 -0.06850126 0.039316706 -0.0069204555
00000000: ef24 bc3c 2469 48be 2fb6 0cbd 98dc babd
00000010: 14e2 3cbd 9449 82bd 2cca 85be 28e6 063e
00000020: b7e9 d6bd 0203 50be 068a a23d 83cd bd3d
00000030: 51ef a0be 65b6 823d 7ebc e83b 7883 93be
00000040: e41d eb3d 61c3 be3d 8768 d23d c6ee d2bd
00000050: d420 103e 68f4 16be 6a2b aebd bacf 34bd
00000060: 29dd fcbd 74c5 7a3d 6fdf 743d 6a28 c5bb
00000070: b355 9ebe 07b8 80be fe1d 08be 48cd 5f3d
00000080: 6f48 c5bb c153 9fbd 1da0 e43d 351c dfbd
00000090: 6cc6 7cbe c52a 2d3c 456b 83bd 11fb a83d
000000a0: fef9 74bd 9b83 893d 29c7 8cbe 9ea2 96bd
000000b0: d007 aabd e339 f4bd 52c3 14bd 9618 d2bc
000000c0: c429 74be 5485 f13d 43cc 5abd a609 ab3d
000000d0: cc87 e13d cc99 033e 827f 41bd 9895 f83d
000000e0: 93f4 6bbd 24fd 89bd c9e1 e93c 5c7d 4bbe
000000f0: 812b a13d 66b3 19be 65ec ee3d 60cb 27be
00000100: f7b1 35bc eea9 9cbc 57ae c9be 62d6 10bd
00000110: a5da 003d 70aa cabd 53f0 a6bd c34d 0d3e
00000120: 12bc b33d 09f0 56bd 71f3 183d 14e2 c13d
00000130: 20df a5bd 2155 35be a3c2 883d 6381 eebd
00000140: fc04 5d3d c6c0 833c bf61 c3bd dd07 57bd
00000150: c581 27be 23d7 ff3d 8ec9 80be 8d2e 203b
00000160: 620f 7dbe 4039 7ebd a22d 51bd cf5b 51be
00000170: b046 d1bc 2c4e 92be 77af ad3d 1d7d f03d
00000180: e140 2c3d 39a8 8bbe c43d bcbe 558b 4e3e
00000190: d7bb 143d 5b7f a13c 834e 81be 8e93 9fbd
000001a0: 087c df3d c201 a4bb 4ee6 053d c514 0e3e
000001b0: bb34 823d de0d 573d e490 063e 42d1 d0be
000001c0: 4e15 07be 58cd 973d f730 3d3d 8f7a 66bd
000001d0: 5240 21be f79d 643d 5d29 70be 24f1 833b
000001e0: 193e 833b 42b2 feba be61 a5be e514 89bd
000001f0: 7a59 c7be eb5d 89bd da0d bb3d d6f0 c2bc
00000200: 2733 3dbc bacf 2dbc 1dd4 a1bd ce51 c2be
00000210: eefc b3bd c1ad d1bc 89c1 56be 78c4 b2be
00000220: 75eb 06be 2cb6 74bc 448e f03d 869d 333e
00000230: 9b88 22be 005e 173d db30 c73d 1409 013e
00000240: 2d9b 193d bf2f 95be 3047 333e e874 b0bd
00000250: 8e01 723b 039e 4bbd a784 ec3d 8c53 22bc
00000260: f06d 5cbe 7d78 43be 1ef5 0b3e 78a2 b73d
00000270: ab97 013c cfc3 83bd 40f3 58bc 5014 9dbe
00000280: 6169 8cbc f6a2 a9bd 2cd6 83be bcdb 9cbd
00000290: e6ed 82be 2734 6bbd 7373 febe 4e53 cfbe
000002a0: c23f c8bd 69e9 203e 8868 893d 3040 aabe
000002b0: 9b62 78be c662 023e daec 83bd d8ba 7a3b
000002c0: 88b4 593d e38a 0abe 3f6f 85bd 0a55 4dbd
000002d0: d329 e63d c814 27be ecf8 70bd e40a 633c
000002e0: 86e9 9b3d 902f 44be af8d 87bd f674 033e
000002f0: 3d52 51be db64 953d 2512 87be d673 5ebe
00000300: 296f e23c 8a5c 8f3d 1bbb 023e 38e9 9cba
00000310: 5a4b 19be c0f7 e83d d730 9c3c aa62 e73d
00000320: 4889 7ebe b09b 28bd b383 73be 86c9 56be
00000330: 808f b6bd 5a61 1d3e 7d48 dcbe 2019 5abe
00000340: 8129 f1bd 2a91 47be 7b89 b13d f7c6 25bd
00000350: f9d3 92be 6773 22be 0cf8 213d 919c 8b3d
00000360: 65c4 d7bd c036 86bd 6bf5 9cbd a6e1 95bd
00000370: c03e 77bd 7854 3bbe 72b8 003e e447 4e3e
00000380: 49ac 1c3d d4bb 313d f683 033e 939a 6dbd
00000390: c402 21be e5e7 bebc 81ef 12be cfab a2bd
000003a0: e437 7fbe c93e 363c 8129 ee3d 64c2 b7be
000003b0: 04d8 853d 3f65 b4bb 4416 33be 09f8 87bd
000003c0: 1408 13be 3859 f5bd 8195 75be 114c 233d
000003d0: eba3 d23c a9f7 203d 09a1 153e ca1f 273d
000003e0: 36e5 ff3d 9da4 8abd caa0 8abc b006 793d
000003f0: 4dcd 6a3e 634a 8cbd 8e0a 213d fdc4 e2bb

fc1.bias f4 [10]
0.3091166 0.4976252 -0.33861682 -0.065726414 0.13248216 -0.010545822 -0.1422637 0.091118746
-0.03259451 -0.33186752
00000000: 8844 9e3e bbc8 fe3e 2f5f adbe 929b 86bd
00000010: 67a9 073e 62c8 2cbc 93ad 11be 779c ba3d
00000020: d281 05bd 8aea a9be
